model/model.pth (torch, 19264 bytes, 4 tensors)

linear1.weight f4 [256, 13]
000000 ea ed a2 3e b8 99 96 3e 5c 2a 9b 3e 35 10 0f 3e
       0.3182214 0.29414153 0.30305755 0.13971026
000010 fa 11 77 bc 34 6b bc bd bf 01 44 be ac 4a 42 bb
       -0.01507997 -0.09200135 -0.19141291 -0.0029646559
000020 39 ff e8 bd 0e 01 7d bc d2 98 12 be fd cf 2c 3e
       -0.11376805 -0.015442146 -0.14316109 0.16876216
000030 27 b4 85 be 67 40 3a 3e 8c 8e 7a 3e 6d 15 99 be
       -0.26114008 0.1818863 0.2446844 -0.2989916
000040 a0 fb db bc 6a 84 d7 bd ff b6 1a be 73 95 80 bc
       -0.026853383 -0.10523303 -0.1510887 -0.015696263
000050 13 e8 11 3e db a0 3e be d6 af 68 b9 75 af f5 bd
       0.14248686 -0.18616049 -0.00022190748 -0.119963564
000060 84 66 62 3e f1 b6 a3 3c 8f ea 16 be 80 41 7a bd
       0.22109419 0.019984694 -0.14737915 -0.061097622
000070 01 5c 56 3c 16 a1 e3 bd 28 78 4e 3e e0 31 bc 3e
       0.013083459 -0.11114709 0.20163023 0.36756802
000080 cc 24 d2 3d 78 a8 b1 bd 1b e0 df bd 6a d2 a9 be
       0.10260925 -0.08674711 -0.109314166 -0.33168346
000090 9f 89 9d bd f1 58 25 bd f6 bf 87 be 3e 7c e2 3d
       -0.07692265 -0.040368024 -0.26513642 0.110588536
0000a0 4c 50 3e be df be 96 3d 98 67 86 bd 12 f0 25 be
       -0.18585318 0.073606245 -0.06562728 -0.16204861
0000b0 ef 5e e2 bc 02 78 05 be 2c da 1d 3d 4c c9 98 be
       -0.027633158 -0.1303406 0.038538143 -0.29841077
0000c0 16 9d 1c 3d 48 a4 90 bd 13 49 1c 3e b3 56 8b bc
       0.038235746 -0.07062584 0.1526225 -0.017009115
0000d0 ff 67 df 3c 28 14 b7 3d 01 16 71 bd d4 f5 f9 3d
       0.027271269 0.089393914 -0.058858875 0.12205091
0000e0 a8 68 a4 be 73 fe ef 3c e4 cd bf bd 86 67 91 3e
       -0.32111096 0.029296136 -0.093654424 0.28399295
0000f0 46 f7 02 be 5e 4c 8d be 76 18 0a be 22 e3 3f 3e
       -0.1278964 -0.27597326 -0.13485894 0.18738988
000100 47 b2 b0 3c 3f 82 3a be b1 0a 8a bd 3a dc 12 3f
       0.021569384 -0.18213747 -0.067403205 0.5736729
000110 84 66 17 3d b3 32 86 3e ff e2 72 3d 4a 27 05 be
       0.036963 0.26210555 0.05929851 -0.13003269
000120 82 14 31 3c e0 d5 1a 3e 25 d2 c5 3d 46 7b 24 3e
       0.010808112 0.1512065 0.096592225 0.1606265
000130 96 21 29 be 67 af 23 be 65 cf f9 3e 15 f0 58 3d
       -0.16516718 -0.1598488 0.48791042 0.052963335
000140 b0 cb 18 bd 8f e5 5b 3e 47 c9 72 3e ba 7f 7c 3d
       -0.037303627 0.21474288 0.23709594 0.061645247
000150 41 ee 33 3e 34 cc a0 be d8 d0 49 be 8f f1 de bd
       0.17571355 -0.31405795 -0.19708574 -0.108859174
000160 66 b9 92 be c5 13 66 3e f4 01 f6 3d 8f 0f 3f be
       -0.28657073 0.22468479 0.12012091 -0.18658279
000170 a8 1d ed 3e 2a d9 8d be 80 f1 7d bd cd 9c 95 bd
       0.46311688 -0.27704746 -0.06199789 -0.07305298
000180 cf 76 a2 bd fb 33 a7 3d b6 57 cd be fc 4a 98 bd
       -0.07932817 0.08164211 -0.4010598 -0.07436177
000190 7e de 9c bc 48 e1 19 be e7 c0 f9 3c e2 83 3d 3e
       -0.019149061 -0.15027344 0.03048749 0.1850734
0001a0 5c 4d 02 3f c3 9c 34 bd 2b ad 88 be 92 01 67 3e
       0.5089929 -0.044094812 -0.26694617 0.22559193
0001b0 f7 00 b5 3e 6e 4b 71 3e fb 7f be bc 30 cd de bd
       0.353523 0.2356393 -0.023254385 -0.1087898
0001c0 0f 8a 72 bc b4 24 d7 bd 71 51 1b bd 9f 38 01 be
       -0.014803424 -0.105050474 -0.037919465 -0.12619255
0001d0 12 3c 47 3e 9e ac db be c6 8c 34 3e 9b e6 fa 3e
       0.19456509 -0.42905134 0.17631826 0.49004063
0001e0 84 ec ba 3d c6 b9 34 3e 80 d0 6c 3e 69 75 2e be
       0.09127143 0.17648992 0.23126411 -0.17036976
0001f0 37 8e 96 bb ee 85 1b bd 78 2e 74 be 6f cc 57 3e
       -0.00459459 -0.037969522 -0.23845851 0.21074079
000200 5b 1a 71 3e 4f a4 25 3e 82 7c 8b be 22 92 a3 bc
       0.2354521 0.1617596 -0.2724343 -0.019967142
000210 27 f5 b4 bb 5b dd 07 be 6f c2 75 be 05 7f 7c 3e
       -0.0055223885 -0.13268034 -0.23999952 0.24657829
000220 59 47 11 be fc 38 ec bd be 13 2b be 16 f4 87 3b
       -0.14187373 -0.115343064 -0.1670675 0.0041489704
000230 dd b2 d4 be 99 08 a4 be 99 54 cf be 77 9e a5 3e
       -0.41542712 -0.3203781 -0.4049423 0.32347462
000240 c8 91 37 3e cf 39 ff 3e 1a 33 7d 3e 5b fd c3 bc
       0.17926705 0.49848792 0.24726525 -0.02392452
000250 c3 ce 09 3e a1 0f 15 3d 6f 1c 75 3e c1 fa f4 3d
       0.1345778 0.036391858 0.23936628 0.1196189
000260 9b c5 30 3e 92 d4 1b 3e d1 70 c0 3c 5d c9 12 3e
       0.1726288 0.15217808 0.023491295 0.14334626
000270 b0 6c 39 be 64 19 1a bd 84 7e 0e 3f a0 63 8f be
       -0.18107867 -0.03762187 0.556618 -0.28005695
000280 96 ee b7 3d b5 b4 6f 3d 42 08 38 3e 8a 26 b2 3d
       0.089810535 0.058521945 0.179719 0.08698757
000290 6f 61 e7 bd 6b e0 a5 3e 17 46 38 3e 45 9a 2d bc
       -0.11297881 0.3239778 0.17995487 -0.010595863
0002a0 aa 57 28 be 1c e0 ca 3e 8d 20 56 3e f3 ff 70 be
       -0.16439691 0.39624107 0.20910855 -0.23535137
0002b0 80 d2 84 be 0e ec 65 bd 22 69 09 3e bf b1 34 3e
       -0.2594185 -0.056133322 0.13419011 0.1764593
0002c0 b0 05 36 3e c6 5a e9 bd ce 2f 16 be 5b 8c ec 3c
       0.17775607 -0.11394267 -0.14666674 0.02887552
0002d0 d1 82 ee bd 61 27 93 3d 34 fe b3 bd a8 71 89 3d
       -0.11646045 0.07185245 -0.0878872 0.06711131
0002e0 2f 86 ea 3e 34 a4 25 3e 4d b1 79 3e 3a 6f 23 be
       0.458055 0.1617592 0.24384041 -0.15960398
0002f0 38 0c 51 bd de 2c fd bd 51 58 7c bd 2a 94 c4 3b
       -0.051037043 -0.12362073 -0.061607663 0.005999108
000300 2c 32 9a 3e 42 93 91 bd 1a 7f 27 be 05 af 9e be
       0.30116403 -0.07108165 -0.16357079 -0.30992904
000310 a9 88 c6 3e 72 4c 52 be 7c eb 23 3e 11 9f 56 be
       0.38776138 -0.20536974 0.16007799 -0.20959117
000320 6f b2 bd bc 3c f6 ce 3d 4d e0 42 be 6f a7 cf bd
       -0.023156373 0.10105559 -0.19030876 -0.10139357
000330 a7 fd 53 3e 70 b4 57 3e bd a9 a3 3d 97 cd c2 3d
       0.2070223 0.21064925 0.079913594 0.095118694
000340 3e 4f 05 be 2b 14 0a 3f ba c1 54 be 7b 6a 59 bd
       -0.1301851 0.53937024 -0.20777026 -0.053080063
000350 0d d0 b4 be df 9d bd bb 8c 06 84 3e 42 bd 0a 3e
       -0.3531498 -0.005786642 0.25786245 0.13548759
000360 6e 34 40 3e e9 1d ce 3d 7b 8c d6 bd 0a d3 06 3e
       0.1877 0.10064299 -0.10476013 0.13166443
000370 c4 de 06 3e fd 46 bb 3d be 28 76 3e 0e dc d0 bd
       0.13170916 0.09144399 0.2403898 -0.10198222
000380 87 d4 b2 3e da 44 91 3e bd 5d 72 be 4f 2b 6d 3d
       0.3492777 0.28372842 -0.23668571 0.05790263
000390 78 26 e7 3d ac 2d a4 bd 51 57 22 3e c5 b3 0e 3e
       0.11286634 -0.08016524 0.15853621 0.13935764
0003a0 f6 03 77 3e 40 82 1b 3e 13 d2 1a 3e c6 b1 82 3e
       0.24122605 0.15186405 0.151192 0.25526255
0003b0 ad 20 ed be 85 2e b2 3e 31 62 89 be 0d 6f a2 3d
       -0.46313992 0.34801117 -0.26832727 0.079313375
0003c0 3a 39 bd 3d f1 41 37 3e 55 d9 81 3e 0a b5 10 be
       0.09239431 0.17896248 0.25361124 -0.14131561
0003d0 1a f0 0d 3e a8 50 c6 3c 7f 97 f7 bd 6a 10 a4 bd
       0.13861123 0.024208382 -0.120894425 -0.08010943
0003e0 7d d6 85 3e 5b cf b0 3e 61 4d 66 bd 66 c8 df 3e
       0.26140204 0.345332 -0.056226138 0.4370758
0003f0 2a a6 33 be 78 16 2f 3d 95 ed 2b 3e 7c fe ee 3d
       -0.17543855 0.042746037 0.16789849 0.11669633

linear1.bias f4 [256]
000000 1d 68 68 bc d6 52 14 3e 68 cd 05 be 32 c5 6a bd
       -0.014184979 0.14484724 -0.13066638 -0.057316966
000010 02 a6 d2 bd ea dd 44 be d7 da 26 3d 18 01 42 3e
       -0.1028557 -0.19225278 0.040736046 0.1894573
000020 62 8b 1b be 8c be 8b 3e 97 32 21 3e 57 ca 77 be
       -0.15189889 0.27293813 0.15741955 -0.2419828
000030 79 01 f8 bd 9a fb f3 bc 22 e7 bb 3c 6e bb 09 3e
       -0.12109656 -0.029783059 0.022937361 0.13450405
000040 49 23 34 3d 27 a3 16 3c c9 ce 33 3e 4c 16 67 bd
       0.043978963 0.009194172 0.17559351 -0.05641775
000050 6a e9 a0 3d d7 31 5a be b2 29 20 bd 44 3f 66 bc
       0.0785702 -0.21308075 -0.039102264 -0.01405317
000060 1a fd 85 bc 5f 27 19 be f4 18 ac 3d 7d 6b 1d be
       -0.01635604 -0.14956425 0.08403197 -0.15373035
000070 7b 7e 3b 3e 65 b5 fc 3d fa 37 a2 3e cb 90 92 3d
       0.18309967 0.12339286 0.31683332 0.07156523
000080 12 2e 76 be 40 80 3f bd 46 89 98 3d c0 83 7b 3d
       -0.24041012 -0.046753168 0.07448058 0.061404943
000090 2c f2 2c be d0 9c d9 3e 9f 7c 91 bc 89 ee da bd
       -0.16889256 0.4250245 -0.01775962 -0.10690028
0000a0 ee 7a d0 3d 49 52 29 3d 6d 6a a0 3c bc 4c 1f be
       0.10179697 0.04133824 0.019581998 -0.15556616
0000b0 3b 38 d0 bd a4 a2 71 be 50 ea 52 3e 15 62 62 bd
       -0.10166975 -0.23597199 0.20597196 -0.05526932
0000c0 d7 f8 96 be f0 d9 ff ba d8 ca 9d 38 91 7c be 3c
       -0.29486725 -0.0019519906 7.524126e-05 0.023252757
0000d0 59 9b 0a be 0f 94 99 bd 1d d3 6b be 68 d1 8a bc
       -0.13535823 -0.07498943 -0.23029752 -0.016945556
0000e0 f0 0f b5 3c 9e 75 8c be c6 b2 bc bd d9 10 8d be
       0.022102326 -0.27433485 -0.09213786 -0.27551916
0000f0 d9 cb 6a be 6c aa aa be f7 32 94 bd 4c 03 2b 3e
       -0.22929324 -0.33333147 -0.07236283 0.16700476
000100 ad 5a a8 be 87 ce ae bd 85 66 ad 3d 70 d8 6e be
       -0.3288168 -0.08535486 0.0846682 -0.23324752
000110 6a 4a ae 3b f1 70 b7 be d0 ac ac bd 9e 5b 30 be
       0.0053189294 -0.35828355 -0.08431399 -0.17222449
000120 83 00 8d bd 0b a0 1f 3d b2 08 2f be d2 52 2b bd
       -0.06884863 0.03897099 -0.17093161 -0.04182703
000130 63 83 65 3e 8f 62 2b be 0f 0d ee 3d 88 ed d6 3d
       0.22413401 -0.16736816 0.116235845 0.10494524
000140 ce 61 b4 3d b0 e6 e5 b8 91 b8 8c bd 88 b8 70 bc
       0.08807717 -0.0001096254 -0.06871141 -0.014692433
000150 15 38 40 be cc 6a 1f bd 78 2b 44 be b6 e0 2f be
       -0.18771394 -0.03892021 -0.19157207 -0.17175564
000160 1b 14 a3 bc 2a 45 5e 3c 64 0c 45 3e e0 2f 67 bc
       -0.019907048 0.013566295 0.19243008 -0.014110535
000170 7c 79 df bd 62 43 83 be 73 db 05 3a 2c 7e 3a be
       -0.10911843 -0.25637347 0.0005106248 -0.18212193
000180 20 40 9b bd bf 0e 90 bd 86 1c 1b 3e 57 2d ee ba
       -0.0758059 -0.070340626 0.151476 -0.0018171471
000190 bf b1 48 be 58 0c ff bd 09 33 0d 3e 7d 33 aa 3d
       -0.19599055 -0.12453526 0.13789 0.08310602
0001a0 d6 8d 07 be 43 07 f3 bc 5b 19 94 bd 50 52 ba be
       -0.132377 -0.029666549 -0.07231399 -0.36390924
0001b0 6a 97 05 bd 81 e3 1b be 88 de 58 3e 3b cc bb bc
       -0.032615103 -0.15223505 0.21178639 -0.022924533
0001c0 6e 8d c4 bd 46 39 4d 3e bc 61 b4 bd 77 1c b9 be
       -0.09597288 0.2004138 -0.08807704 -0.3615453
0001d0 81 9d c4 3e 4a 69 1a be 43 31 75 be d3 fe 50 be
       0.38401416 -0.15079227 -0.23944573 -0.20409708
0001e0 c6 a9 83 be 9b 76 98 3d 84 0d 19 3d f2 93 41 3e
       -0.25715464 0.07444497 0.037366405 0.18904093
0001f0 00 d6 c0 bd ee 92 4b 3c 3f 5d 8b be be d4 cd bd
       -0.09415817 0.0124251675 -0.2721958 -0.10050343
000200 7a 82 4a 3e d6 a6 20 3d 31 39 b7 bd fc 71 0c 3e
       0.19776335 0.039221607 -0.08946455 0.13715357
000210 80 f7 58 3c ca aa 0e 3e 37 e8 55 3e cd 30 f3 bd
       0.013242602 0.13932338 0.20889364 -0.118745424
000220 e0 30 98 bd d0 f6 86 be 49 63 4c 3e 02 ee d6 3d
       -0.07431197 -0.26360178 0.1995975 0.10494615
000230 3b 6c 19 bd f1 35 e6 bc 43 a5 cc bd 6c 27 a2 bd
       -0.037456732 -0.028101893 -0.09992459 -0.079176754
000240 72 81 10 be 30 69 cf bd 5d 01 8c be 93 1e d1 bb
       -0.1411188 -0.10127485 -0.2734479 -0.0063818186
000250 c1 8c bf 3d 8a ee 74 bc 75 a6 50 3e f0 d9 0e bd
       0.093530186 -0.01494945 0.20375998 -0.03487581
000260 e1 9b af 3d e4 89 c5 bd aa 0a d4 bd 94 f1 95 3e
       0.085746534 -0.09645441 -0.103535965 0.29285872
000270 59 b9 4a 3e 75 b6 61 bd 56 8b 0d 3e 34 16 2c 3e
       0.19797267 -0.055105645 0.13822684 0.16805345
000280 ee 23 41 3e b6 fa 07 3d b7 ef c8 bd 47 d8 05 be
       0.18861362 0.03319808 -0.09811347 -0.13070785
000290 af f7 7a 3e 01 31 12 3d 03 7e 0c 3e 93 dd 1a be
       0.24508546 0.035691265 0.13719945 -0.15123586
0002a0 18 a1 16 3d 62 66 1b 3e fe 25 01 bd 0a 15 16 be
       0.036774725 0.15175775 -0.031530373 -0.14656463
0002b0 be 82 24 be 0b 95 b4 3d d8 ea 2f be 50 42 40 3e
       -0.16065499 0.0881749 -0.1717943 0.18775296
0002c0 60 2a 30 be 56 3e 1f be d5 fa 37 3d bd 4f a2 be
       -0.17203665 -0.15551123 0.044916946 -0.3170146
0002d0 e7 93 99 bd 64 50 b0 3c 03 da 82 be 92 27 ab 3d
       -0.07498913 0.021522708 -0.25556955 0.08357157
0002e0 b3 ea 54 3d 72 40 61 3e 20 84 31 3e 6a 00 eb 3d
       0.05198164 0.2199724 0.17335558 0.11474688
0002f0 0d c7 ed bd d8 e8 49 3d dc 2b 04 be 3f 8e 26 3e
       -0.116102315 0.049294323 -0.12907356 0.162652
000300 2f f8 f0 3c 39 9a 8d 3d ef 6e 92 bd 48 8a 05 bd
       0.029415218 0.06914181 -0.07150065 -0.03260258
000310 4c e3 67 bc f5 6b 17 3d a0 79 d2 3c 2a 3c 60 be
       -0.014153313 0.03696819 0.025692761 -0.21897951
000320 eb 75 b2 bc f7 23 60 3e dc 0a 3d 3d cc cc 98 be
       -0.021784743 0.2188872 0.046152934 -0.29843748
000330 92 b7 aa 3c de b9 80 3e 5b cb 8b be a8 a8 7c 3e
       0.020839486 0.25141805 -0.27303585 0.24673712
000340 bd 3b 98 3e f0 9d 21 3e 48 be 00 3e d8 f5 38 3e
       0.29733077 0.15782905 0.12572587 0.18062532
000350 a6 13 8d 3c 7c f9 8e bd 33 90 c2 bc 01 77 27 3c
       0.017221283 -0.06981179 -0.0237504 0.010221244
000360 2b 92 23 3e ca 90 39 bd 14 30 b4 3d 64 b1 ea 3d
       0.15973727 -0.045304097 0.08798233 0.11459616
000370 0d 0c 1a be 2a fd 51 bd 86 c9 a1 bd ff ca c4 3d
       -0.1504366 -0.051266827 -0.07899766 0.09609031
000380 27 8c a2 bb fc 40 2a be ed 3a 30 be 92 34 32 3e
       -0.004960555 -0.16626352 -0.17209978 0.17402866
000390 6e 43 42 be 23 21 4c 3e bb 81 97 3d 4c 37 b1 bd
       -0.18971035 0.19934516 0.07397791 -0.08653125
0003a0 f8 bc 34 be ad 79 92 bd 77 2a 26 bd 03 58 89 3e
       -0.17650211 -0.07152114 -0.04056784 0.2682496
0003b0 b0 84 0e be 58 7a 2f be e2 73 f3 3d 2f 5a f5 3d
       -0.13917804 -0.17136514 0.11887337 0.11980092
0003c0 da ad fc bd c7 c7 d8 3d ad 3e 9e bc 9e a0 6e bd
       -0.12337847 0.105849795 -0.019316996 -0.058258645
0003d0 b6 14 b3 3d fd 97 28 be 7c e3 c4 3d 06 ab 41 bb
       0.08744185 -0.16464229 0.09613702 -0.00295514
0003e0 29 53 e2 bd 8e 88 27 bd 28 f7 8c 3e ce a7 43 bd
       -0.11051018 -0.040901713 0.27532315 -0.047767453
0003f0 9a 3c 13 3e 1c 8c b0 bd cb 0d 31 3e 2a d7 b9 be
       0.14378586 -0.08620474 0.17290418 -0.3629697

linear2.weight f4 [3, 256]
000000 d0 d0 b4 bc 25 d1 0b bd 6c c3 e7 bd 95 19 b7 3c
       -0.022072226 -0.034135003 -0.11316571 0.022351066
000010 83 7d af 3d c2 60 9c bc 7a 1c 47 be 19 36 13 3d
       0.08568861 -0.019089106 -0.19444457 0.035940263
000020 ee 8c 77 be 2d cc 81 3d 4d f1 99 3e 01 4e d9 bd
       -0.24174854 0.063377716 0.3006691 -0.10610581
000030 0d 97 10 3e 41 19 56 bd 65 01 fa bc fc 2f c7 3d
       0.14120121 -0.052270178 -0.030518243 0.09725949
000040 1f 95 58 3d 4c 88 c5 bd 33 2e 20 3d 78 b0 ed bd
       0.052876588 -0.09645137 0.03910656 -0.11605924
000050 81 2b 38 3e 1d 56 92 be c5 3e 07 3e d8 14 b5 bd
       0.17985345 -0.28581324 0.13207538 -0.08841866
000060 05 00 0c 3d 1f 80 79 3e 0b be 2e 3d bf 68 8a be
       0.034179706 0.2436528 0.042661708 -0.2703304
000070 0b e6 cd be 80 d2 5d bd ac a3 fc 3d 40 e1 15 3e
       -0.4021457 -0.054155827 0.123359054 0.14636707
000080 b5 d8 35 bd 6b b9 ea bd 95 98 cc bd 1d a3 a2 bd
       -0.04439612 -0.11461147 -0.0999004 -0.07941268
000090 76 fc 86 3c a5 e0 7b 3e 57 b9 77 bc 78 96 43 be
       0.016477805 0.24597414 -0.015119872 -0.19100368
0000a0 f9 49 96 3d 26 54 d6 bd ec 42 60 bd c0 d1 c6 bc
       0.07338328 -0.10465269 -0.05475132 -0.024269938
0000b0 f7 d4 76 bd dc bc a3 3d 2c 52 6c 3e fe a0 5b 3e
       -0.060261693 0.079950064 0.23078221 0.21448132
0000c0 4e 54 06 bc 18 b1 ce 3d a7 7e 0c bc 59 ee eb bd
       -0.008198811 0.10092372 -0.008575118 -0.115200706
0000d0 b2 dc 39 be bf b1 89 bd a8 03 85 bd 6f 82 3a be
       -0.18150595 -0.067233555 -0.06494838 -0.18213819
0000e0 5d a9 08 be 46 54 41 bd da e9 a7 bc 7a e1 19 3d
       -0.13345857 -0.04719951 -0.020497251 0.037568547
0000f0 20 3c d1 bd 93 4d ea 3d e7 bb d5 bd 8d eb 7d 3d
       -0.10216546 0.11440577 -0.1043623 0.061992217
000100 86 2b 72 bc ef 62 b4 be c1 a7 5f bd 80 c1 a0 bb
       -0.014780885 -0.3523173 -0.054603342 -0.0049058795
000110 cc 42 c8 bd 27 10 ab 3d 94 a4 0a 3e 1f b3 22 3d
       -0.097783655 0.0835269 0.13539344 0.039721604
000120 05 bd 3a be 79 46 a4 bd a3 72 63 bd 75 6a a9 3e
       -0.18236168 -0.08021254 -0.055529248 0.33089033
000130 f3 a6 a5 3e 0e 8b 71 3d 19 67 85 bd 74 06 7e 3b
       0.32353935 0.058970504 -0.06513805 0.003876117
000140 32 28 85 3e 63 d7 fe bd 61 f8 91 be 7a 0d 9b bd
       0.2600723 -0.124434255 -0.2850981 -0.0757093
000150 11 72 a5 be 8e d3 0e 3e be d8 b6 bd ca f0 85 3d
       -0.32313588 0.13947889 -0.08928059 0.065400675
000160 d6 81 e0 bd 09 12 0b bd 40 32 82 3e 93 f9 06 be
       -0.10962264 -0.033952747 0.25428963 -0.13181143
000170 f1 a9 26 bc b2 3a 49 be ec 63 d7 3d 3b 82 9b be
       -0.010172353 -0.19651297 0.105171055 -0.30372795
000180 90 0c 75 3d af 0f 9b bd e4 15 87 3e ea 20 85 bd
       0.059826434 -0.07571351 0.2638389 -0.065004185
000190 50 ec e0 bc f0 b4 d6 bd e9 bc 31 3d f4 3c 50 be
       -0.027456433 -0.1048373 0.04339305 -0.20335752
0001a0 02 bf d3 3d e0 f1 cd bd dd 69 e1 bd 26 82 c9 bc
       0.10339166 -0.100558996 -0.1100652 -0.024598192
0001b0 25 7d a0 3c 95 d1 ad be 81 41 88 3e 69 66 2e be
       0.019590924 -0.3394896 0.26612476 -0.17031254
0001c0 05 ad b0 3b 5e 5a 0b 3e 0e bc 5b bd 70 2a 8d bb
       0.0053917193 0.13608691 -0.05364614 -0.0043080375
0001d0 6c d7 2b 3e 1e 66 80 be 0a 35 66 bd cc 4b 54 be
       0.16781396 -0.2507791 -0.056202926 -0.20732039
0001e0 40 f8 9a ba 56 4b 63 be aa 0e 88 3c 3b 68 52 3c
       -0.0011823252 -0.22196707 0.016608555 0.012842233
0001f0 4a 09 18 be 9a 8e 37 be 8d b9 9c 3c 79 77 70 bd
       -0.14847293 -0.17925492 0.019131446 -0.058707688
000200 31 49 ca 3d 7b 13 dd be 32 e0 4a bd 6f 83 18 3e
       0.098772414 -0.43178925 -0.049530216 0.14893888
000210 14 a7 df bd e0 1f 5c bd 47 dc 30 3e 48 39 aa bd
       -0.109205395 -0.053741336 0.17271529 -0.08311707
000220 6c ac 8e bd cb 29 86 bd 1c a2 18 3e ee d2 d0 bc
       -0.069664806 -0.0655094 0.1490559 -0.025491204
000230 b3 dc 1d 3e 14 4f 4f bd 7b 1f cd bc 7d e8 aa be
       0.15416221 -0.050612524 -0.025039425 -0.333805
000240 61 a5 a4 be 94 ad 7b be 55 02 22 3d 73 d8 e4 bd
       -0.32157424 -0.24577934 0.039553005 -0.11174097
000250 dd cc 42 bd 7e f8 1c 3d 72 b5 c1 3d 04 e4 b5 3d
       -0.047558654 0.038322918 0.09458436 0.08881381
000260 f7 b5 fd 3d 88 e4 54 be e5 bd b8 bd 32 48 a4 3d
       0.12388223 -0.20790303 -0.090205945 0.08021583
000270 cb 4f fc 3d e0 ab 0d 3d 25 e4 a7 3c d0 1c 22 be
       0.12319907 0.03458774 0.02049453 -0.15831304
000280 aa 9f 1d 3e 21 98 b0 bc f6 c0 8f be 6b 0a 4b bd
       0.15392938 -0.021556916 -0.28076905 -0.049570482
000290 a6 42 ab 3d dd 06 ff bd d3 d3 46 bd 04 55 8a bd
       0.083623216 -0.12452481 -0.048541855 -0.06754497
0002a0 5e a1 d9 bd d1 e1 11 3e 41 d0 86 be 9d 65 4f be
       -0.106264815 0.14246298 -0.2633076 -0.20253606
0002b0 78 08 ee 3d e0 7c 70 bc 4e c0 22 be c8 1b b7 3c
       0.11622709 -0.01467821 -0.15893671 0.022352114
0002c0 44 a1 ee bd e8 a9 9c 3c 46 6f c3 be 6b 4c 53 3d
       -0.11651853 0.019123986 -0.38170832 0.05158655
0002d0 bf 84 a2 3e 29 e8 8e bd 09 bd 8a bc 92 70 d0 bd
       0.31741902 -0.06977875 -0.016935842 -0.10177721
0002e0 b0 ac 8c bd 43 b0 0e 3e f5 8d 1a bd 75 ba 76 bb
       -0.06868875 0.13934426 -0.037733037 -0.0037647758
0002f0 b6 fb ff bd 7f 4f a4 be 4e b1 82 bd 69 45 1c 3e
       -0.12499182 -0.320919 -0.063814744 0.15260853
000300 a9 1b 44 3e fb 99 80 3c 51 95 d0 bd d7 b3 7c bd
       0.19151177 0.015698424 -0.1018473 -0.061694946
000310 f3 d1 27 bd 94 9c 29 3e 47 94 0f 3e f6 88 18 3d
       -0.040971708 0.16563636 0.14021407 0.03723999
000320 e2 13 4d bc 11 11 8d 3d 0c b9 dd 3d 2f f0 3e bd
       -0.012516947 0.06888021 0.108263105 -0.046615776
000330 78 d3 31 3e 97 fc 36 3e d8 b5 12 be 3c 15 b9 3d
       0.17365825 0.17869793 -0.1432718 0.09037253
000340 44 4f 30 3e a3 7c 33 3c 96 0e 0e 3e a1 8b eb 3c
       0.17217737 0.010955009 0.13872752 0.028753104
000350 dd f9 8d 3d 0f 53 3a be 19 e0 97 3a 19 76 3a be
       0.06932423 -0.18195747 0.0011587172 -0.18209113
000360 83 0c 5f bd 22 1b 12 bc 8b f2 17 be 63 df 20 bd
       -0.05445529 -0.008917602 -0.14838617 -0.03927554
000370 cc c7 77 be 52 ff 9a be 87 24 86 be 28 44 f5 3d
       -0.2419731 -0.3027292 -0.26199743 0.119758904
000380 6c dd 8c 3e a7 bc ae be 85 7e 60 be 4b b5 31 3e
       0.2751268 -0.34128305 -0.21923263 0.17354314
000390 b1 04 77 bc 44 ec 46 3e c7 c3 c2 3d c4 2f 83 be
       -0.015076802 0.19426066 0.09509998 -0.2562238
0003a0 02 cf b9 bd 23 cd 81 be 43 8d a3 3c a4 9f ae 3d
       -0.09072687 -0.2535182 0.01996482 0.08526543
0003b0 74 55 6e bd ec ff c6 be 81 a5 66 3d c5 bd 30 3e
       -0.058186963 -0.38867128 0.05631018 0.17259891
0003c0 a9 54 08 3e 47 d7 99 bd 44 da 22 be 26 3d c7 bd
       0.13313545 -0.07511764 -0.15903574 -0.0972846
0003d0 45 c0 83 bd 02 64 c1 3a 55 bc 2b be bc f5 f9 be
       -0.06433157 0.0014754536 -0.16771062 -0.48820293
0003e0 82 8b dc 3d c7 2f 48 bd e8 79 bf 3e f8 a4 f9 3d
       0.107687965 -0.04887369 0.37397695 0.121896684
0003f0 b1 e6 9a 3c 67 6a 73 3e 12 04 1e bd eb f5 b4 bc
       0.01890883 0.23771058 -0.0385781 -0.02208992

linear2.bias f4 [3]
000000 c3 f1 b1 3d eb 44 32 3c 09 0d 05 bd
       0.086886905 0.010880689 -0.032483134
