model/model.pth (torch, 19264 bytes, 4 tensors)

linear1.weight f4 [256, 13]
00000000: 25f0 80be 878e d33d 4afd 88be bb75 523b
00000010: 5413 ba3d db54 60be 3ec3 923d 4933 7c3d
00000020: 3873 84be ea28 d73c b279 98bc 7366 88be
00000030: 4c4d d4bd d3dd 32be 3606 c63e c078 fe3d
00000040: 12f6 2c3e d5dd e8bc 39a2 37bf a799 65be
00000050: 318a d43d b80b fe3d 56d9 a2be 4ab8 ffbe
00000060: aa5a 833e b46c 823d a989 db3d 09a6 493e
00000070: 7ccf 35bf 0e9d 51bd 1376 4fbe 819c 0cbc
00000080: cf1e b6be 1ad0 a7be 7efe f93c d90c b2bc
00000090: 49cc d53e 37c5 6c3e 2535 063d 7e97 a23e
000000a0: 8ee1 9a3e 02c6 333e 6fe8 52be 4e92 0f3c
000000b0: c2b9 70be 7aff 8fbe 951c 7bbe 625b 11be
000000c0: c16e 63bd 3a28 8a3b 23eb 5abb 65dd 09bc
000000d0: 60a6 5cbd 06bf 893e 9b45 9a3d 1418 d2bd
000000e0: 93f7 ffbc 9184 37be 495b 5fbe d8d1 7abd
000000f0: 212e 97be c42d 20be 7263 303c 2c19 8bbd
00000100: 42f9 a5bd 0e34 1dbe fe92 03bf d234 48be
00000110: a064 47be a27d 49be d62a d8be c70a b53e
00000120: f646 3a3e 2e83 00be f3c1 00bf 7826 1d3c
00000130: af1a 54be ae99 553d 063c 483e 51ac 963d
00000140: ee64 babe 5872 da3d 2a62 103d 462a cbbd
00000150: 3fc4 3fbe 0c9b 9cbd 3773 e5bd 4abe 0abf
00000160: a912 1ebf 3fe1 a83e 25b5 ac3e 27c5 203e
00000170: f698 76be d751 813e 659c 6abe eff9 8fbd
00000180: 8e5c 4a3d e517 e7bc fb91 21be 8adb cebd
00000190: b2ab 08be f62b 11be 839a 0d3e 3e6f 003d
000001a0: 253c b3be 550b 243e 45fb 7fbe a5b8 86be
000001b0: 0d4a 87bc 43e8 bc3e a976 ca3e 6acf 2f3e
000001c0: 101a be3e 31e4 dabe 9d98 f1be c481 49be
000001d0: 8e5d c2be 9dd7 233f fd1e 62be d150 c3be
000001e0: c74a c43e e9ae c33e 4de5 7abd 7c64 c6be
000001f0: 5116 503e a45a 2a3e f4a7 84bc 53b1 d33e
00000200: d7f0 38be 4f60 9abe 0b7a 36be 6bf4 4abe
00000210: 9f13 2e3f 579a 48be 4970 383d 868f 43ba
00000220: 2a87 a8be 9ab0 cdbc dfaf 083e 860c 6d3d
00000230: b8f0 b2be f197 663d 944f 0a3e 176a b53d
00000240: a1fe 513d 526e 883e 702f 48bd d484 51be
00000250: 71d5 ea3e a25d 803d f8ec c6be 4df2 7cbe
00000260: 9e03 9d3e 93f6 a93e 4ae0 83be 3676 25bf
00000270: 76e3 febe a699 35be 5bec 0cbe 6828 e13d
00000280: 0f52 5c3e 9dc0 b53d 75b5 0c3e 0ae1 b3bd
00000290: 0b2c b33d 77cb 3cbe c8e7 8abe 07fb 80be
000002a0: 07ab 99be c640 a23e 1c18 8a3e 71ca b0be
000002b0: dc2e 12be 8cdb 1bbb 4e92 6ebe a728 74be
000002c0: d7d3 313d 2430 51be 5121 6f3e bebf b83e
000002d0: bf63 723e 8d0d 9c3e c109 833e 2dd9 e33e
000002e0: 8deb 5dbe 267c 08be eb02 aabc 4bce e3bd
000002f0: 8454 93be a1d8 58be d261 73be def6 163e
00000300: ba9b 903e bc8c 8c3d 0cc3 933d feca 7cbe
00000310: efda 5cbd 74d6 25be e02d f5ba 675c d83d
00000320: 21a1 7d3e 5627 f0be 9f5f a5be c661 b73e
00000330: 3ab0 70be d7e8 053f d3ad 9e3e 004f 83be
00000340: 3d93 a3bc 206f a9be 9592 2f3e 74a6 223d
00000350: b427 7abd 0e15 6bbe 2604 ad3e be26 6ebe
00000360: 0a12 e13e 4b7f f53e 1870 03be 7e5f c73e
00000370: 155f 88be cbf4 823c 5a9a c7be 921b 303f
00000380: 4773 73be 760e c43d 0b7b 95be 7eab 7ebd
00000390: 0873 cbbd 59c1 153d d77b 77be 284b 61bd
000003a0: bff8 9fbe ab43 86be d607 013e 1eda 2b3f
000003b0: 2e6b a8be 69a1 efbc 6f99 99bd 2bad 043e
000003c0: 4b62 9bbe 3cf7 c43c 37d1 8abe cf54 473e
000003d0: 27f9 57be a758 e6be 2c48 6dbd 360c 323c
000003e0: dbd1 7b3d e656 923d f771 8ebd b371 debd
000003f0: 70cd c5be 6987 733e f885 563e 6dd9 7c3e
-0.25183216 0.10329919 -0.26755744 0.003211363 0.09085718 -0.2190737 0.07166146 0.061572347
-0.25869155 0.026264627 -0.018612716 -0.26640663 -0.10366306 -0.17467432 0.38676614 0.12425375
0.16890743 -0.02842609 -0.7173191 -0.22421895 0.103779204 0.12404579 -0.3180644 -0.4994529
0.2565511 0.0636839 0.10719616 0.19692244 -0.7101972 -0.05117517 -0.20259885 -0.008582235
-0.3557038 -0.32775956 0.03051686 -0.021734642 0.4175742 0.23122106 0.032765526 0.31756204
0.3025021 0.17556003 -0.20596479 0.008762909 -0.23508361 -0.281246 -0.24522622 -0.14195016
-0.055525545 0.004216221 -0.0033404313 -0.008414601 -0.053869605 0.26903552 0.075328074 -0.10258499
-0.031245982 -0.17921664 -0.21812166 -0.06123528 -0.2952738 -0.15642458 0.010765897 -0.067919105
-0.08104183 -0.15351889 -0.5139617 -0.195514 -0.19471979 -0.19676831 -0.4222018 0.35359785
0.18191132 -0.12550041 -0.50295943 0.009591691 -0.20713304 0.052148513 0.19554147 0.073570855
-0.36405128 0.106663406 0.035249867 -0.099201724 -0.18727206 -0.0764676 -0.11203616 -0.5419661
-0.61747223 0.3298435 0.33731952 0.15700208 -0.24081787 0.2525775 -0.22911222 -0.07030093
0.049404673 -0.028209636 -0.15778343 -0.101004675 -0.13346747 -0.14176926 0.13828473 0.03135609
-0.35006824 0.16019948 -0.24998195 -0.26312748 -0.016514802 0.36895952 0.39543656 0.17168966
0.3712926 -0.4275222 -0.47186747 -0.19678408 -0.37962002 0.64000875 -0.22082134 -0.38147596
0.383383 0.38219383 -0.061253835 -0.38748538 0.20321013 0.16636139 -0.016193368 0.41346225
-0.18060623 -0.30151603 -0.17819993 -0.198198 0.6799869 -0.19590126 0.04502896 -0.00074600463
-0.32915622 -0.025108624 0.1334834 0.05787327 -0.3494928 0.056297246 0.13506919 0.08858126
0.051268224 0.26646668 -0.048873365 -0.20460826 0.45865968 0.06267859 -0.38852668 -0.24701805
0.30666822 0.33195934 -0.25757056 -0.646335 -0.49782914 -0.17734393 -0.13762037 0.10994035
0.21515678 0.08874629 0.13741095 -0.08783157 0.08748635 -0.1843699 -0.2712996 -0.2519152
-0.30013296 0.31690043 0.2697152 -0.3452945 -0.14275688 -0.0023781983 -0.23297998 -0.23843633
0.043414917 -0.2042852 0.23352553 0.36083788 0.23670863 0.30479088 0.2559338 0.4450163
-0.21671887 -0.13328609 -0.020753345 -0.11123332 -0.28775418 -0.21176387 -0.23767784 0.1474261
0.2824381 0.068627805 0.072149366 -0.2468681 -0.05391973 -0.16195089 -0.0018705688 0.10564499
0.24768497 -0.4690501 -0.32299516 0.35816783 -0.23504725 0.5230841 0.30991992 -0.2564621
-0.01996767 -0.33092594 0.1714576 0.039709523 -0.06107302 -0.2295725 0.33792228 -0.23256966
0.43959075 0.4794868 -0.12835729 0.38940042 -0.26635042 0.015985867 -0.38984948 0.6879207
-0.23774444 0.09573071 -0.29195437 -0.062175266 -0.0993405 0.036561344 -0.24168335 -0.055003315
-0.31244466 -0.26223502 0.12600645 0.67129695 -0.32894272 -0.029251771 -0.07499968 0.12956683
-0.3034843 0.024043672 -0.27112743 0.19465946 -0.21091138 -0.4498951 -0.057930157 0.010867169
0.06147943 0.07145481 -0.06955331 -0.1086153 -0.386333 0.23782124 0.20949543 0.24692316

linear1.bias f4 [256]
00000000: 00b5 6dbe 0da1 113e 9512 53be 3622 68be
00000010: c564 77be d43b 853e e5c4 cb3e 008c 0bbf
00000020: 0db6 863f 859f 15bd 67c0 a73e ad80 2e3e
00000030: b599 053f 702c 19be a3e7 8ebe 5e38 72bd
00000040: 486e 88be 86f6 473e 6bc2 e33d e68b 1d3f
00000050: 3b7e 78be 0403 803d eb82 b1be 3082 9fbc
00000060: 82ad b8be e5ec febd f2b7 eb3e a396 32bd
00000070: a5c0 5a3e d9db 30be b9da bd3c 197b 88be
00000080: e87c 92be 4708 26bd 321f 75be 8394 d03e
00000090: 9d34 50be f663 c6bd 5f10 8dbe 229d 453e
000000a0: 9603 38be 8b98 103e 8a73 0cbe fae6 bbbe
000000b0: c0c3 7c3f 85be eb3d 9211 cabd 8d45 b53e
000000c0: cc03 3ebe 4ffc 00be 3bff a9bc 7809 c1bd
000000d0: c3d0 033e d18e 97be 7bc9 bfbe 6b5e 18bd
000000e0: 8c56 c3bc 9cdb 853e 97a3 93bc 740e 61be
000000f0: b2d5 37be c93e 8ebe c529 853e 3754 a5bd
00000100: 4e16 41be 1314 21be 9433 56be 0117 6bbe
00000110: b964 b2bd 2f58 e23d 4fb8 bebb b7e9 30be
00000120: 82ca 88bd 27f9 8a3e 4476 99be da0d b2be
00000130: cdc5 54be 5827 d23e fc01 44be 6cb4 03be
00000140: bc84 95be 19c5 7d3e 9d59 a3bb b621 acbe
00000150: 1537 3f3e 36da 96be 6aa4 093e 55fd 17bc
00000160: 6b24 62be ab67 a8be bc24 cebd 11f3 4fbe
00000170: 9d29 39be 953e 03be 33c8 113d c257 0ebe
00000180: f65f e6be aed0 43bd 2939 033e 0797 90be
00000190: 0530 a2bd d3ba 62be 4e18 37be fad2 61be
000001a0: d6eb 0dbe 6e7f 443d 1bb0 e5be bef4 5dbd
000001b0: 2cb8 97bc b0d2 3c3d 2408 583e 04bb 0abd
000001c0: fd98 983e 60ad 633d b20c 7abe 84cb d9bd
000001d0: b4ad 41bc 6c2c 55be 32aa afbe f659 7e3d
000001e0: 6f39 82be 0c56 143d 9218 98be eba7 a6bd
000001f0: 1b2d 56be 2a9f 98be 2282 8bbd 5dfa 0f3e
00000200: 4df4 0fbe 232b 63bd c4fb ea3e eba3 89bd
00000210: 9050 5f3e bcaf ad3e a619 21be 7f57 cbbd
00000220: 25e1 ad3d 198c 06be 05fd 32bd 507d b9be
00000230: c901 82be b0c5 82be 0436 ac3d ecf4 893c
00000240: ac5a bb3d aec9 6e3e 1612 45be dcea 21be
00000250: 1d0b 52be b2c0 93be 782c 5abe 57cb ba3d
00000260: 2ee9 ca3e e59c acbe 40fd 8abe dc26 fc3b
00000270: 23ea 61be 47b7 80be 68c5 4abd 5bf9 0dbe
00000280: 47fa ba3e fc1d 903c 97c9 023e 32d0 74be
00000290: c047 3ebe 54ae 8ebe 3bd3 713e e2c1 8a3e
000002a0: 0227 a0be 013b b4bd 66bf 59bd 134b 833f
000002b0: a866 833e a954 173c 9d33 8f3d bae8 5dbe
000002c0: 0f66 04bd aea7 5abe 6fa3 11bd 70bd 8dbe
000002d0: af99 d3bd 2dc0 94bc 1e61 7cbe a9c9 e13d
000002e0: 313f a6bc 33e5 98be 36be 4abe f270 c9bd
000002f0: d99b d5bd 58a1 b33d f9a1 e3bd e889 98bd
00000300: d6d2 c2bd 3e02 313e 649a 0bbc 9e60 0e3f
00000310: 18eb eb3e d441 36be 7760 9fbe 3f49 f0bd
00000320: 4206 ccbd 9095 b5be d0b5 51be 0ffd d5be
00000330: ae0f 8bbe be19 ecbe dfb8 30bd 1048 9ebd
00000340: ade0 a6be efaf 3bbe b1bd 3bbe ef07 de3e
00000350: e8f5 30be 4086 c2be 1aee 70be 2a4c 7ebe
00000360: 63ce 00be 590b 2bbe c0d6 6cbd 9636 96be
00000370: 8366 d8be b7d7 893b 2e21 dcbe 325f 26be
00000380: ddc3 68bd 2e09 0ebe 1c90 fcbe 3908 1fbe
00000390: 9a9d b9be 945e c5bd b4ed 453e 0044 f6bd
000003a0: 8862 2fbd 6de1 46be 8c5b 963d 78dc b43e
000003b0: ea7d d6be 8021 773d afa7 4cbc 8dd8 0abe
000003c0: 4286 b83c a4b5 0fbf 6c6a b5be d516 bb3d
000003d0: ad7f 303f 6bf3 d83e 3652 ac3e 13fa 97be
000003e0: 6dc1 7cbe 9f71 403e a56f 603e ee39 ca3e
000003f0: e7e3 7abe d3cb bdbe 8938 b4bd 80de e5be
-0.23213577 0.14221592 -0.20612557 -0.226693 -0.24159534 0.26022208 0.39798656 -0.545105
1.0524307 -0.036529083 0.3276398 0.17041273 0.52187663 -0.14958358 -0.279111 -0.059135787
-0.26646638 0.19527635 0.11121067 0.61541593 -0.24266903 0.06250575 -0.34670195 -0.019471258
-0.36069876 -0.12447528 0.46038777 -0.04360069 0.2136255 -0.17271365 0.023175584 -0.26656416
-0.2861092 -0.040535238 -0.23937681 0.40738305 -0.2033257 -0.09687035 -0.27551553 0.19298223
-0.17970118 0.1412069 -0.1371595 -0.3669966 0.9873619 0.11510948 -0.098666325 0.35404626
-0.18556136 -0.12596248 -0.020751586 -0.09425634 0.12872605 -0.29601148 -0.37458405 -0.03719942
-0.02384498 0.2614411 -0.018022342 -0.2197817 -0.17952612 -0.27782276 0.2600843 -0.08072703
-0.18856165 -0.15730314 -0.20918113 -0.22957994 -0.087106176 0.11051976 -0.005820311 -0.17276655
-0.0667925 0.27143213 -0.29973042 -0.34776193 -0.2077858 0.41045642 -0.19141382 -0.12861794
-0.2920283 0.24782218 -0.004985048 -0.3361947 0.18673356 -0.29463357 0.13441625 -0.009276708
-0.22084205 -0.32891592 -0.100656 -0.20307566 -0.1808228 -0.12816842 0.035591315 -0.13900664
-0.44995087 -0.047806434 0.12814774 -0.28240225 -0.07919315 -0.2214158 -0.17880365 -0.22053137
-0.13859496 0.04797309 -0.4486092 -0.054188482 -0.018520437 0.046099365 0.21096855 -0.03386976
0.2980422 0.055585265 -0.24418905 -0.10634521 -0.011821199 -0.20817727 -0.34309536 0.062097512
-0.25434443 0.036214873 -0.29706246 -0.081374966 -0.20915644 -0.29808933 -0.0681193 0.1406035
-0.14058037 -0.05546106 0.45895207 -0.06720718 0.21808076 0.33923137 -0.1573244 -0.09928798
0.084902085 -0.1313938 -0.04369833 -0.36228418 -0.25391987 -0.2554145 0.0840874 0.01684042
0.09148154 0.23319122 -0.1924518 -0.15812248 -0.20512052 -0.28857952 -0.21306026 0.09120815
0.39631027 -0.3371345 -0.2714634 0.007695062 -0.22061972 -0.2513983 -0.049504668 -0.13864653
0.3651907 0.017592423 0.12772213 -0.23907545 -0.18582058 -0.27867377 0.23615734 0.27101046
-0.3127976 -0.088003166 -0.053161047 1.0257286 0.25664258 0.009236493 0.06992266 -0.2167081
-0.032323893 -0.21353027 -0.035556253 -0.27683592 -0.10332047 -0.018158043 -0.24646422 0.11024792
-0.020293804 -0.29862365 -0.19799122 -0.09835996 -0.10430116 0.08771008 -0.11114878 -0.074481785
-0.0951287 0.17286012 -0.008520696 0.55616176 0.460778 -0.17798549 -0.31128284 -0.117327206
-0.09962131 -0.3546567 -0.20479512 -0.4179463 -0.271604 -0.4611339 -0.043145057 -0.077285886
-0.3259329 -0.18328832 -0.1833408 0.43365428 -0.17281306 -0.3799305 -0.23528329 -0.24833742
-0.1257873 -0.16703548 -0.05782199 -0.2933852 -0.4226571 0.0042066234 -0.42994064 -0.16247252
-0.056827415 -0.1387069 -0.49328697 -0.1553048 -0.36253053 -0.0963718 0.19328958 -0.12024689
-0.042818576 -0.1942193 0.0734168 0.35324454 -0.4189294 0.060334682 -0.012491151 -0.1355917
0.022524957 -0.56136537 -0.35432756 0.09135214 0.6894482 0.42373213 0.33656472 -0.2968298
-0.24683161 0.18793343 0.21917589 0.39497322 -0.24501 -0.37069568 -0.08799846 -0.44896317

linear2.weight f4 [3, 256]
00000000: 1be2 9fbc 01c5 b33e 0ed0 bfbd f6e8 84bc
00000010: 3449 96ba fe72 1d3e 7fec 9b3e 31a5 bebc
00000020: a796 e13e 6bb4 16bf fa97 1e3e 5daa a53e
00000030: 8b67 f33d dcb4 f3bd c93a 10bd f10f 89be
00000040: 9a61 e6be d2aa 9e3d 99fe 193e 97a3 bc3e
00000050: e005 40bb b6f2 ea3e abd4 7abd bd4a fdbd
00000060: c171 a6be 7a7b 16be 7400 6f3e 675b fe3e
00000070: b9e9 913e 6535 a5be 308e f13c 000d 3bbe
00000080: bf00 88bd 975c 3ebe feb0 fabd 5aa5 053f
00000090: 3c51 893d f032 b83e 40f5 89bf d2ba 8f3e
000000a0: 262e e93c 5b04 d33e 7633 913c af36 873b
000000b0: d2e0 a13e eebe 993e 384a 33bd 8513 933e
000000c0: 85ee 5c3c e0e6 eabb 99c0 03bf 896c 34bd
000000d0: 58ab 673d 9093 ccbd e454 f1bd da2f ac3d
000000e0: 384e 24bc d794 9c3d 8edb e9be d48a cdbd
000000f0: 0585 e83c 9e24 debd bd84 ab3d f538 cebd
00000100: 63d0 1fbe 6b8c 0cbf 2308 533d 3f13 11be
00000110: 97c5 75bd 55a5 c4be 6933 9d3e d640 d03b
00000120: 90e3 bd3d dc08 873d 5370 e03c 39de 523c
00000130: f0e8 e53c 6860 ee3e 6d51 133d 91db aabd
00000140: ee4d b5be 475d 263f 4dd1 79be 6d60 0e37
00000150: dea1 873e 7621 2abf 9a0f d23d 8402 ad3c
00000160: 0ea2 a6bd eb15 cbbb b88d 403c d842 39be
00000170: 84e4 92be 2299 a93d 0b71 f03e 0e3f 4d3d
00000180: 85ba 7cbc bd61 82bc 557b 4d3e 0ebc 253b
00000190: 865f 963d 7642 51bd 8cb8 56bb 5b0e 77bf
000001a0: c193 bcbe 8dbc 8fbe 5afc 18be fd27 1d3e
000001b0: cf76 19bd b163 bcbd 1e5c a83d fada 843e
000001c0: 4a75 d03d 102b 2ebd b52a c4bd 28f7 09bc
000001d0: d600 933e 859c 713d 0726 4fbe 2fd9 6a3e
000001e0: cf5a 22bc 0783 993e a8c3 21be 764f f6bd
000001f0: 22fc 29bc 81b2 98bd 7925 61be c1f2 0b3e
00000200: 7596 8e3e 93b2 293e 374e 8b3e 2664 b536
00000210: 7cdf 013d 1c1e b73e d130 e23e 9d4e b53d
00000220: da0d f53e eeee 02bf 8322 1fbe d4ed 4f3d
00000230: 6945 373c 726f c8bc 9b64 ba3e 4485 4a3e
00000240: 4ad6 0e3d 1341 d33e 2ccf 66bd d35b 82bc
00000250: 9668 13bd e6e8 f8bb bb70 18be fa80 7b3d
00000260: 679c a33e fc07 0a39 9c08 40be 5160 973e
00000270: 5506 45be 1877 3abe 1a9f 9fbe edad 273d
00000280: e9c8 973e 782b b4be 9c73 d43d a56a 84be
00000290: a1a1 babd 6b94 c6bd 459e b43e 5691 b43e
000002a0: 4dc5 25bb 1835 553e b8ca 3ebe eaf9 b23e
000002b0: 570a fb3e ec8e 463e 6b21 92be 27cd 7a3c
000002c0: 6878 0fbf e863 71bd 60fa 36be dcd2 16bc
000002d0: 8f34 a43e 44b4 2abf e060 39bb 0f34 b23e
000002e0: 9a0c 6c3e 8d26 613d 0ad4 07bd 5462 74be
000002f0: f894 12bf 5fef 783e e8b8 7cbd addc da3c
00000300: 2738 cebd c1f9 b83d ed27 eabe 9d93 a23e
00000310: 43f6 af3e 8c13 74be 047f 3abe f1e4 9dbe
00000320: edcd a4bd b976 173d e2f5 cf3b 0530 56bc
00000330: d43a c4bd 8772 35bc 78b8 2dbe 6520 18be
00000340: 09e8 8d3c 1c15 b93b c946 dcbe f8d6 a43e
00000350: b0db b63c b90d 7f3a cf19 83bd a5a5 0fbd
00000360: a88c 203d 3220 1c3c 53a0 91be 409b 10bb
00000370: 9284 16be 6d8c abbd f866 25be 61c6 a7be
00000380: 7faa c93c 5c5a 1ebf 8163 4abe c079 7fbe
00000390: b477 1f3c 4ab4 14be 182d bebe 81db eeba
000003a0: ef1a d7bc 2345 393b ada5 e83e 8a26 dc3d
000003b0: 57f8 10bd d4ca f2be f5d4 473e fdf6 733d
000003c0: 7978 8c3d 5582 533d f54f 04bd 9605 e7be
000003d0: 0bbd 4d3e c334 803e 6530 fe3e d743 1fbf
000003e0: ecef 8dbe 6c49 38bd 8a5f a63e 1487 c03e
000003f0: d952 8fbc 6fdd f23b f791 1dbd b632 46be
-0.019516995 0.3511124 -0.09365855 -0.016224366 -0.0011465908 0.15375897 0.3045387 -0.023272129
0.4406025 -0.58869046 0.15487662 0.3235654 0.11884984 -0.118997306 -0.035212312 -0.26769975
-0.4499634 0.07747425 0.15038528 0.3684356 -0.0029300377 0.458883 -0.061237972 -0.12367771
-0.32508662 -0.1469554 0.23340017 0.4967911 0.2849863 -0.322673 0.029486746 -0.18266678
-0.06640767 -0.18590008 -0.1224079 0.5220543 0.06704947 0.35976362 -1.0777969 0.2807222
0.028464388 0.4121426 0.017724734 0.004126392 0.31616837 0.3002848 -0.043771952 0.2872583
0.013484602 -0.0071686357 -0.51465756 -0.04404882 0.05655989 -0.09989083 -0.1178377 0.084075645
-0.010028414 0.076455764 -0.4567532 -0.10036245 0.028383741 -0.10846828 0.08374927 -0.100694574
-0.15606837 -0.5490176 0.05152143 -0.14167498 -0.06000289 -0.38407388 0.30703285 0.0063553853
0.0927192 0.06593487 0.02739731 0.012870365 0.028065175 0.46557927 0.035966326 -0.0834266
-0.35411018 0.6498608 -0.24396248 8.48631e-06 0.26490682 -0.6645731 0.10256882 0.021119364
-0.08136378 -0.006197681 0.011752538 -0.18091905 -0.2868997 0.08281161 0.46961245 0.05010896
-0.015425329 -0.015915746 0.20066579 0.0025289091 0.073424384 -0.051088773 -0.0032763807 -0.9650628
-0.36831477 -0.2807354 -0.14940014 0.15347286 -0.03746682 -0.09198702 0.08220695 0.25948316
0.10178621 -0.042521536 -0.09578458 -0.008420743 0.28711575 0.05898716 -0.2022935 0.22934411
-0.009909346 0.29982778 -0.15797293 -0.12026875 -0.010375055 -0.07455922 -0.21986951 0.13666822
0.27849165 0.16572027 0.2720811 5.405879e-06 0.031707272 0.3576516 0.4417787 0.08852885
0.4786213 -0.5114583 -0.15540509 0.05076392 0.011185982 -0.024467204 0.3640488 0.197774
0.03487233 0.41260585 -0.05634992 -0.015912926 -0.035988413 -0.007596123 -0.14886753 0.0614023
0.31955263 0.0001316368 -0.18753284 0.2956567 -0.19240697 -0.18209493 -0.31176072 0.040937353
0.2964547 -0.35189414 0.10373613 -0.25862613 -0.091128595 -0.09696277 0.35277 0.35267133
-0.0025294602 0.20821035 -0.18632019 0.34956294 0.49031326 0.19390458 -0.2854112 0.015307701
-0.560431 -0.05893317 -0.17868948 -0.009205546 0.3207135 -0.66681314 -0.0028286502 0.34805343
0.23051682 0.054968406 -0.0331612 -0.23865634 -0.5725856 0.24310063 -0.061699778 0.026716555
-0.10069304 0.09032012 -0.45733586 0.31753245 0.3436757 -0.23835582 -0.18212515 -0.3083873
-0.0804709 0.036978457 0.00634645 -0.013072972 -0.09581533 -0.011074669 -0.169649 -0.14856108
0.017322557 0.0056482684 -0.43022755 0.32195258 0.022321552 0.0009729523 -0.06401407 -0.03507008
0.03919664 0.00952916 -0.2844263 -0.0022065192 -0.14699009 -0.083763935 -0.1615256 -0.3276854
0.024617432 -0.6185663 -0.1976452 -0.24948788 0.009733129 -0.145219 -0.3714378 -0.0018223376
-0.02625796 0.0028269968 0.454389 0.10749538 -0.035393085 -0.4742037 0.1951483 0.05956172
0.06858916 0.051637966 -0.032302815 -0.4512145 0.20091645 0.25040254 0.49646297 -0.6221289
-0.27722108 -0.044991896 0.32494766 0.37603056 -0.01749556 0.007411651 -0.03846928 -0.19355282

linear2.bias f4 [3]
00000000: 7330 833e a5b7 313c ba67 7a3d
0.256229 0.010847007 0.061134078
